Model: "model_1"
_________________________________________________________________
 Layer (type)                Output Shape              Param #   
=================================================================
 input_2 (InputLayer)        [(None, 34526, 6)]        0         
                                                                 
 conv1d_3 (Conv1D)           (None, 34510, 16)         1648      
                                                                 
 max_pooling1d_3 (MaxPooling  (None, 8627, 16)         0         
 1D)                                                             
                                                                 
 dropout_4 (Dropout)         (None, 8627, 16)          0         
                                                                 
 conv1d_4 (Conv1D)           (None, 8617, 32)          5664      
                                                                 
 max_pooling1d_4 (MaxPooling  (None, 2154, 32)         0         
 1D)                                                             
                                                                 
 dropout_5 (Dropout)         (None, 2154, 32)          0         
                                                                 
 conv1d_5 (Conv1D)           (None, 2148, 64)          14400     
                                                                 
 max_pooling1d_5 (MaxPooling  (None, 537, 64)          0         
 1D)                                                             
                                                                 
 dropout_6 (Dropout)         (None, 537, 64)           0         
                                                                 
 flatten_1 (Flatten)         (None, 34368)             0         
                                                                 
 dense_2 (Dense)             (None, 512)               17596928  
                                                                 
 dropout_7 (Dropout)         (None, 512)               0         
                                                                 
 dense_3 (Dense)             (None, 9)                 4617      
                                                                 
=================================================================
Total params: 17,623,257
Trainable params: 17,623,257
Non-trainable params: 0
_________________________________________________________________
Epoch 1/60
311/311 [==============================] - 143s 456ms/step - loss: 2.1956 - ERM: 0.2675 - KDEL: 0.3006 - LMA: 0.0793 - MITO: 0.0764 - NES: 0.0969 - NIK: 0.0774 - NLS: 0.0580 - NUCP: 0.1560 - OMM: 0.0404 - val_loss: 2.1786 - val_ERM: 0.2057 - val_KDEL: 0.3623 - val_LMA: -0.0927 - val_MITO: 0.2262 - val_NES: 0.1752 - val_NIK: 0.3327 - val_NLS: 0.1253 - val_NUCP: 0.1562 - val_OMM: 0.1727
…
