Model: "model"
_________________________________________________________________
 Layer (type)                Output Shape              Param #   
=================================================================
 input_1 (InputLayer)        [(None, 34526, 4)]        0         
                                                                 
 conv1d (Conv1D)             (None, 34510, 16)         1104      
                                                                 
 max_pooling1d (MaxPooling1D  (None, 8627, 16)         0         
 )                                                               
                                                                 
 dropout (Dropout)           (None, 8627, 16)          0         
                                                                 
 conv1d_1 (Conv1D)           (None, 8617, 32)          5664      
                                                                 
 max_pooling1d_1 (MaxPooling  (None, 2154, 32)         0         
 1D)                                                             
                                                                 
 dropout_1 (Dropout)         (None, 2154, 32)          0         
                                                                 
 conv1d_2 (Conv1D)           (None, 2148, 64)          14400     
                                                                 
 max_pooling1d_2 (MaxPooling  (None, 537, 64)          0         
 1D)                                                             
                                                                 
 dropout_2 (Dropout)         (None, 537, 64)           0         
                                                                 
 flatten (Flatten)           (None, 34368)             0         
                                                                 
 dense (Dense)               (None, 512)               17596928  
                                                                 
 dropout_3 (Dropout)         (None, 512)               0         
                                                                 
 dense_1 (Dense)             (None, 9)                 4617      
                                                                 
=================================================================
Total params: 17,622,713
Trainable params: 17,622,713
Non-trainable params: 0
_________________________________________________________________
Epoch 1/60
311/311 [==============================] - 139s 442ms/step - loss: 2.1933 - ERM: 0.2886 - KDEL: 0.3088 - LMA: 0.0371 - MITO: 0.1041 - NES: 0.1056 - NIK: 0.1197 - NLS: 0.0671 - NUCP: 0.1486 - OMM: 0.0609 - val_loss: 2.1806 - val_ERM: 0.3775 - val_KDEL: 0.4593 - val_LMA: 0.1162 - val_MITO: 0.3395 - val_NES: 0.2238 - val_NIK: 0.3255 - val_NLS: 0.3527 - val_NUCP: 0.3721 - val_OMM: 0.0920
…
